dados.pth (torch, 6772 bytes, 6 tensors)

camada1.weight f4 [8, 76]
0.23544051 0.5251548 -0.022152545 0.1839276 0.24248144 0.33166268 0.20700628 -0.16411503
0.040681683 -0.17647693 -0.05381422 0.22911619 0.12721878 0.5388341 0.075214304 0.46729487
0.4063652 0.45715508 0.25994435 0.2168614 -0.22679615 0.33267388 0.5422062 0.29797417
0.59553415 -0.06615454 0.18659607 0.40329134 0.40306717 -0.12121021 0.20598347 1.0346224
0.29918495 0.21973558 0.8001301 0.38611642 0.15178058 0.6156391 -0.14571904 -0.26586917
0.36888292 0.8713996 -0.24950993 -0.20792758 -0.3012629 -0.24891135 -0.30624214 0.54663974
0.36705536 -0.069658116 0.63564247 -0.37425053 0.38453728 0.13765971 0.5225423 0.5315716
0.6607867 0.15630852 -0.22744061 -0.273889 0.30926678 -0.24528685 0.31569645 0.14546214
0.56478274 0.59585965 0.24361229 -0.26337168 0.15462965 -0.29739687 0.6252828 0.2904813
0.28260145 0.47736883 -0.18114574 0.2699742 0.3848606 0.6791901 -0.28082046 0.21481028
0.34261164 0.35443422 0.046882533 -0.49864218 0.27773443 -0.34155577 0.24283107 -0.50859165
0.011112746 0.42898166 0.2254289 0.55145276 0.7321471 0.50929654 0.353357 0.45082638
-0.15648739 0.42682087 0.6847227 0.25968516 0.8223308 0.43643704 -0.3907521 0.29552025
0.6901937 -0.48759577 -0.080230094 -0.41574875 -0.0744465 0.39093432 -0.3952932 0.75693536
-0.48409444 0.18460412 0.07351485 -0.15984114 0.4135064 -0.019328643 -0.14704429 -0.32081485
0.8239836 0.7128386 0.8128412 0.37152302 0.4327636 0.5559151 0.6319519 0.31209412
0.36757505 0.6657593 0.45121056 -0.3998053 0.41447005 0.18368392 -0.423735 -0.5363605
-0.06542297 -0.13921344 -0.06572347 0.5093851 0.21802816 -0.18118098 0.72164744 -0.29406098
-0.08511779 -0.2330635 0.0048488276 0.4907977 0.26129887 0.50862485 0.8638804 0.29846594
0.08197157 0.03421744 0.050372113 -0.24092637 0.033013962 -0.043463007 -0.048833407 0.23221171
0.68289304 0.04185819 0.77866465 -0.2779495 0.24265374 0.2521343 0.6869493 0.022678256
-0.12511867 0.026563294 -0.015703045 0.8726197 0.06415978 -0.111285925 -0.07451649 -0.17358314
0.21303417 -0.1502346 -0.05373494 0.10611722 0.00022632364 -0.67714965 -0.2417497 -0.5818994
0.073763914 0.13768058 0.42931017 0.06881004 -0.21302848 -0.008195324 0.5940873 0.079753764
-0.16675703 -0.34628317 0.056481056 0.1559763 0.38234884 0.4803038 0.38905093 0.1735747
-0.06946984 -0.19339867 0.025653213 -0.22594105 -0.062358312 -0.13197726 -0.09711558 -0.20821795
0.34637967 -0.07678265 0.022463335 0.21008368 -0.11987602 0.0914093 -0.11278443 -0.10769957
-0.105550215 -0.15723787 0.48533204 0.0426516 -0.02064 -0.006561865 0.63734007 -0.0331362
-0.046173185 -0.18454824 -0.299701 -0.075535975 0.012890786 -0.23618399 0.5863077 0.15286018
-0.29238868 -0.021559644 0.46556872 -0.18649796 0.3752667 -0.15676084 0.43676397 0.75680715
0.057294738 0.63870406 0.29282215 -0.218621 -0.20152652 -0.12477325 0.008304818 0.34784788
-0.18242201 -0.13925366 -0.2220548 -0.012976162 0.09812233 -0.023448821 -0.07267597 -0.33081996
00000000: 5117 713e 8c70 063f 4179 b5bc 8457 3c3e
00000010: 0e4d 783e b1cf a93e 74f9 533e c50d 28be
00000020: d6a1 263d 5eb6 34be 4d6c 5cbd 6f9d 6a3e
00000030: a445 023e 08f1 093f f509 9a3d 4641 ef3e
00000040: 190f d03e 3b10 ea3e 6d17 853e ea10 5e3e
00000050: 403d 68be 3b54 aa3e 07ce 0a3f 1290 983e
00000060: ed74 183f 087c 87bd 0a13 3f3e 347c ce3e
00000070: d25e ce3e 0f3d f8bd 55ed 523e 826e 843f
00000080: c52e 993e 5d02 613e 54d5 4c3f 0db1 c53e
00000090: 5e6c 1b3e 869a 1d3f 5f37 15be 0120 88be
000000a0: 39de bc3e 0b14 5f3f 887f 7fbe f8ea 54be
000000b0: 213f 9abe 9ee2 7ebe c5cb 9cbe 95f0 0b3f
000000c0: aeee bb3e eaa8 8ebd 77b9 223f c49d bfbe
000000d0: 12e2 c43e abf6 0c3e 55c5 053f 1415 083f
000000e0: 5129 293f 570f 203e 31e6 68be 2e3b 8cbe
000000f0: 3758 9e3e 7a2c 7bbe f7a2 a13e 07f4 143e
00000100: 9a95 103f 428a 183f 8075 793e a7d8 86be
00000110: 3c57 1e3e 6744 98be 8912 203f f7b9 943e
00000120: 23b1 903e b069 f43e 457e 39be 0f3a 8a3e
00000130: 730c c53e 67df 2d3f b3c7 8fbe 3af7 5b3e
00000140: cb6a af3e 6778 b53e e607 403d 074e ffbe
00000150: 3533 8e3e 66e0 aebe b5a8 783e 1033 02bf
00000160: 3c12 363c 7ca3 db3e d5d6 663e 022c 0d3f
00000170: fe6d 3b3f 4261 023f 35eb b43e b7d2 e63e
00000180: 3b3e 20be 4488 da3e fd49 2f3f 74f5 843e
00000190: 4584 523f ad74 df3e a910 c8be 6e4e 973e
000001a0: 89b0 303f 27a6 f9be ad4f a4bd 05dd d4be
000001b0: 6877 98bd 8b28 c83e df63 cabe 84c6 413f
000001c0: 3adb f7be dd08 3d3e f48e 963d 65ad 23be
000001d0: 1cb7 d33e 1a57 9ebc c792 16be d841 a4be
000001e0: 97f0 523f 977c 363f 5c16 503f 4438 be3e
000001f0: 3193 dd3e 7450 0e3f 9ac7 213f cdca 9f3e
00000200: cc32 bc3e 346f 2a3f 1205 e73e 48b3 ccbe
00000210: 6b35 d43e a317 3c3e cbf3 d8be ec4e 09bf
00000220: 7afc 85bd f88d 0ebe 079a 86bd 1067 023f
00000230: c642 5f3e 8287 39be e3bd 383f 298f 96be
00000240: 3c52 aebd 33a8 6ebe eae2 9e3b d649 fb3e
00000250: f7c8 853e 3d35 023f 4427 5d3f 87d0 983e
00000260: b6e0 a73d 9627 0c3d fd52 4e3d 67b5 76be
00000270: a639 073d 4406 32bd 8a05 48bd e8c8 6d3e
00000280: 14d2 2e3f 7e73 2b3d 9156 473f 664f 8ebe
00000290: 397a 783e bf17 813e e9db 2f3f c0c7 b93c
000002a0: 1c1f 00be 449b d93c aca3 80bc 0164 5f3f
000002b0: 3466 833d e0e9 e3bd 1a9c 98bd c7bf 31be
000002c0: a125 5a3e 19d7 19be 2b19 5cbd fc53 d93d
000002d0: 4a51 6d39 ae59 2dbf 3c8d 77be 5cf7 14bf
000002e0: 8911 973d 23fc 0c3e 8bce db3e 47ec 8c3d
000002f0: 2324 5abe ae45 06bc 1b16 183f f155 a33d
00000300: 5bc2 2abe 074c b1be ae58 673d 40b8 1f3e
00000310: 3ac3 c33e 61ea f53e af31 c73e 91bd 313e
00000320: 3446 8ebd 4d0a 46be b026 d23c 175d 67be
00000330: 6e6b 7fbd 0c25 07be 89e4 c6bd 1637 55be
00000340: ad58 b13e 3940 9dbd 0705 b83c 2d20 573e
00000350: 8f81 f5bd cd34 bb3d 86fb e6bd 9891 dcbd
00000360: b62a d8bd f702 21be 717d f83e 72b3 2e3d
00000370: 3815 a9bc ea04 d7bb b828 233f d3b9 07bd
00000380: 1820 3dbd 37fa 3cbe 6972 99be 9bb2 9abd
00000390: e033 533c 37da 71be 4318 163f 6187 1c3e
000003a0: f8b3 95be da9d b0bc 065f ee3e 52f9 3ebe
000003b0: f522 c03e ea85 20be 879f df3e 1dbe 413f
000003c0: e3ad 6a3d 1c82 233f c9ec 953e 2fde 5fbe
000003d0: f85c 4ebe 1e89 ffbd ee10 083c 1e19 b23e
000003e0: d6cc 3abe 8398 0ebe 5562 63be f899 54bc
000003f0: 5cf4 c83d be17 c0bc 24d7 94bd 3c61 a9be

camada1.bias f4 [8]
0.6746683 1.0115782 0.6561755 1.2510896 0.34650093 -0.081508204 0.7997089 0.33508447
00000000: 10b7 2c3f 657b 813f 1efb 273f b423 a03f
00000010: 9268 b13e c6ed a6bd b9b9 4c3f 3190 ab3e

camada2.weight f4 [8, 8]
0.44152376 -1.2752115 -0.24166912 -0.041511584 0.3639876 0.043850955 1.0107152 1.159381
1.0122379 0.8165875 1.503905 0.73349905 1.0596093 -0.09938182 -1.134804 0.4289346
0.17761873 -0.2897453 0.024904078 -0.29823974 -0.06692681 0.058462232 -0.34448856 0.16884881
0.04654327 -0.2940005 0.27398172 -0.20012878 -0.033603013 -0.0771212 -0.32554954 0.14930448
0.88812035 -1.0721918 -0.7517522 1.1688935 0.34896353 0.12219233 -0.18493776 0.0713106
-0.4449489 0.71276987 0.7533652 1.0907459 -0.4061052 -0.25446445 0.39026436 -0.62190217
0.7558429 0.9698905 -1.1416912 1.0243673 -0.8920013 -0.24015819 1.0398812 -0.6607207
0.81153876 0.8348218 -0.8017928 -0.5639772 0.4824743 0.1734421 0.40779892 1.1712412
00000000: 670f e23e 213a a3bf 1c78 77be 0d08 2abd
00000010: 955c ba3e 0f9d 333d 1e5f 813f 9966 943f
00000020: 0391 813f e10b 513f f67f c03f 98c6 3b3f
00000030: 47a1 873f b288 cbbd 4241 91bf 519d db3e
00000040: afe1 353e 7f59 94be a303 cc3c e1b2 98be
00000050: ec10 89bd 1876 6f3d ce60 b0be b4e6 2c3e
00000060: 28a4 3e3d 3c87 96be 5547 8c3e 8fee 4cbe
00000070: 50a3 09bd b8f1 9dbd 6eae a6be 46e3 183e
00000080: db5b 633f 953d 89bf d572 40bf 4d9e 953f
00000090: 59ab b23e f93f fa3d 5360 3dbe 4b0b 923d
000000a0: 58d0 e3be 1678 363f 8bdc 403f 909d 8b3f
000000b0: 05ed cfbe 2a49 82be bbd0 c73e fb34 1fbf
000000c0: ec7e 413f be4a 783f f022 92bf 781e 833f
000000d0: 325a 64bf 07ec 75be d41a 853f fe24 29bf
000000e0: 01c1 4f3f e2b6 553f 4b42 4dbf cf60 10bf
000000f0: df06 f73e ce9a 313e 05cb d03e 3beb 953f

camada2.bias f4 [8]
0.64946014 0.034850325 -0.21228722 -0.3497139 0.103347436 1.1619872 0.4461712 -0.122138575
00000000: 0543 263f 37bf 0e3d d261 59be b30d b3be
00000010: d2a7 d33d ffbb 943f 8d70 e43e ca23 fabd

camada3.weight f4 [11, 8]
-1.0950092 -1.5239787 0.26667204 -0.13939855 -1.0841748 0.37328994 0.6880947 -0.23680784
0.8413756 -1.3925384 -0.089166395 0.030359894 -0.82034385 0.5306355 -0.20051453 -1.4250121
-1.10625 -0.08101566 -0.123294905 0.13069066 -0.8134192 -1.064223 0.5536187 0.2388423
0.93265915 -1.041003 -0.13395439 -0.31035224 -0.5647554 -0.9019338 -1.4878441 0.5107732
-0.09199364 -0.62244356 0.22991326 0.29398826 0.7266194 -0.11435001 0.28174996 -1.0738055
0.18342915 0.5696209 -0.14938742 -0.034185946 -0.05432331 -1.3437394 -1.5700537 0.3571969
0.45558676 -0.6454337 -0.25559208 -0.18620886 -0.13044482 -0.6343688 0.111332506 0.37009808
0.36884904 0.119634904 -0.010527258 -0.18115348 0.6679827 -1.0656885 -0.53363204 -0.07080068
-1.0009935 0.6202989 -0.3318102 0.18910852 0.10984593 -0.4058348 -0.4012515 -0.06797875
-0.83716166 0.84643126 0.23415272 0.029144973 -1.2066236 0.4333221 -1.7175331 -1.4525408
-1.2588603 -0.027342126 0.04997596 -0.179225 -0.9531769 0.7901577 0.2624608 -1.8516582
00000000: 4329 8cbf bc11 c3bf 3d89 883e 7ebe 0ebe
00000010: 3dc6 8abf dc1f bf3e f926 303f c17d 72be
00000020: 6464 573f b33e b2bf df9c b6bd 50b5 f83c
00000030: 0e02 52bf bad7 073f ae53 4dbe cc66 b6bf
00000040: 9a99 8dbf 8aeb a5bd 0a82 fcbd c6d3 053e
00000050: 3e3c 50bf 7638 88bf f5b9 0d3f 1393 743e
00000060: c0c2 6e3f 963f 85bf 572b 09be 7de6 9ebe
00000070: cf93 10bf 22e5 66bf ad71 bebf 08c2 023f
00000080: 2967 bcbd 7658 1fbf 626e 6b3e a185 963e
00000090: bb03 3a3f 5730 eabd 8841 903e 7572 89bf
000000a0: dad4 3b3e add2 113f 04f9 18be 9006 0cbd
000000b0: 1e82 5ebd a7ff abbf 85f7 c8bf 83e2 b63e
000000c0: ab42 e93e 253b 25bf f7dc 82be 89ad 3ebe
000000d0: 5493 05be fe65 22bf 4c02 e43d 7f7d bd3e
000000e0: c8d9 bc3e 2503 f53d 857a 2cbc 4c80 39be
000000f0: ea00 2b3f 7b68 88bf 1c9c 08bf f2ff 90bd
00000100: 8e20 80bf e9cb 1e3f 07e3 a9be aaa5 413e
00000110: e7f6 e03d 94c9 cfbe d670 cdbe 7138 8bbd
00000120: 3a50 56bf b8af 583f bbc5 6f3e 70c1 ee3c
00000130: a472 9abf 65dc dd3e 20d8 dbbf dbec b9bf
00000140: 5622 a1bf 98fc dfbc 98b3 4c3d c286 37be
00000150: 6703 74bf c647 4a3f 4361 863e 2303 edbf

camada3.bias f4 [11]
0.032031685 -0.06185752 -0.1326715 0.42855045 -0.07171987 0.02305606 -0.01652921 -0.48608458
-0.103427224 0.019666523 0.48821205
00000000: a833 033d 505e 7dbd 0adb 07be f76a db3e
00000010: dee1 92bd 10e0 bc3c 4468 87bc 14e0 f8be
00000020: a7d1 d3bd b01b a13c eef6 f93e
